…
nnections\n    keras.layers.Dropout(0.5),  # 50% of neurons are dropped during training\n\n    # Output layer - 2 neurons (for cats and dogs) \n    keras.layers.Dense(2, activation='softmax') # Softmax for normalizing output \n])\n\nWe can inspect the model summary by running:\n\nmodel1.summary()\n\nModel: \"sequential\"\n\n\n\n┏━━━━━━━━━━━━━━━━━━━━━━━━━━━━━━━━━┳━━━━━━━━━━━━━━━━━━━━━━━━┳━━━━━━━━━━━━━━━┓\n┃ Layer (type)                    ┃ Output Shape           ┃       Param # ┃\n┡━━━━━━━━━━━━━━━━━━━━━━━━━━━━━━━━━╇━━━━━━━━━━━━━━━━━━━━━━━━╇━━━━━━━━━━━━━━━┩\n│ conv2d (Conv2D)                 │ (None, 148, 148, 32)   │           896 │\n├─────────────────────────────────┼────────────────────────┼───────────────┤\n│ max_pooling2d (MaxPooling2D)    │ (None, 74, 74, 32)     │             0 │\n├─────────────────────────────────┼────────────────────────┼───────────────┤\n│ conv2d_1 (Conv2D)               │ (None, 72, 72, 64)     │        18,496 │\n├─────────────────────────────────┼────────────────────────┼───────────────┤\n│ max_pooling2d_1 (MaxPooling2D)  │ (None, 36, 36, 64)     │             0 │\n├─────────────────────────────────┼────────────────────────┼───────────────┤\n│ conv2d_2 (Conv2D)               │ (None, 34, 34, 128)    │        73,856 │\n├─────────────────────────────────┼────────────────────────┼───────────────┤\n│ max_pooling2d_2 (MaxPooling2D)  │ (None, 17, 17, 128)    │             0 │\n├─────────────────────────────────┼────────────────────────┼───────────────┤\n│ flatten (Flatten)               │ (None, 36992)          │             0 │\n├─────────────────────────────────┼────────────────────────┼───────────────┤\n│ dense (Dense)                   │ (None, 128)            │     4,735,104 │\n├─────────────────────────────────┼────────────────────────┼───────────────┤\n│ dropout (Dropout)               │ (None, 128)            │             0 │\n├─────────────────────────────────┼────────────────────────┼───────────────┤\n│ dense_1 (Dense)                 │ (None, 2)              │           258 │\n└─────────────────────────────────┴────────────────────────┴───────────────┘\n\n\n\n Total params: 4,828,610 (18.42 MB)\n\n\n\n Trainable params: 4,828,610 (18.42 MB)\n\n\n\n Non-trainable params: 0 (0.00 B)\n\n\n\nNow we’re ready to train the model. We’ll compile the model using the Adam optimizer and binary cross-entropy loss since this is a binary classification task. The model is trained f
…
2D((2, 2)),\n\n    # Classification Layers\n    keras.layers.Flatten(),\n    keras.layers.Dense(128, activation='relu'),\n    keras.layers.Dropout(0.5),\n\n    # Output Layer\n    keras.layers.Dense(2, activation='softmax')\n])\n\nWe can inspect the model summary by running:\n\nmodel2.summary()\n\nModel: \"sequential_4\"\n\n\n\n┏━━━━━━━━━━━━━━━━━━━━━━━━━━━━━━━━━┳━━━━━━━━━━━━━━━━━━━━━━━━┳━━━━━━━━━━━━━━━┓\n┃ Layer (type)                    ┃ Output Shape           ┃       Param # ┃\n┡━━━━━━━━━━━━━━━━━━━━━━━━━━━━━━━━━╇━━━━━━━━━━━━━━━━━━━━━━━━╇━━━━━━━━━━━━━━━┩\n│ sequential_3 (Sequential)       │ (None, 150, 150, 3)    │             0 │\n├─────────────────────────────────┼────────────────────────┼───────────────┤\n│ conv2d_6 (Conv2D)               │ (None, 148, 148, 32)   │           896 │\n├─────────────────────────────────┼────────────────────────┼───────────────┤\n│ max_pooling2d_6 (MaxPooling2D)  │ (None, 74, 74, 32)     │             0 │\n├─────────────────────────────────┼────────────────────────┼───────────────┤\n│ conv2d_7 (Conv2D)               │ (None, 72, 72, 64)     │        18,496 │\n├─────────────────────────────────┼────────────────────────┼───────────────┤\n│ max_pooling2d_7 (MaxPooling2D)  │ (None, 36, 36, 64)     │             0 │\n├─────────────────────────────────┼────────────────────────┼───────────────┤\n│ conv2d_8 (Conv2D)               │ (None, 34, 34, 128)    │        73,856 │\n├─────────────────────────────────┼────────────────────────┼───────────────┤\n│ max_pooling2d_8 (MaxPooling2D)  │ (None, 17, 17, 128)    │             0 │\n├─────────────────────────────────┼────────────────────────┼───────────────┤\n│ flatten_2 (Flatten)             │ (None, 36992)          │             0 │\n├─────────────────────────────────┼────────────────────────┼───────────────┤\n│ dense_4 (Dense)                 │ (None, 128)            │     4,735,104 │\n├─────────────────────────────────┼────────────────────────┼───────────────┤\n│ dropout_2 (Dropout)             │ (None, 128)            │             0 │\n├─────────────────────────────────┼────────────────────────┼───────────────┤\n│ dense_5 (Dense)                 │ (None, 2)              │           258 │\n└─────────────────────────────────┴────────────────────────┴───────────────┘\n\n\n\n Total params: 4,828,610 (18.42 MB)\n\n\n\n Trainable params: 4,828,610 (18.42 MB)\n\n\n\n Non-trainable params: 0 (0.00 B)\n\n\n\nWe’re ready to train model2 and should expect an accuracy higher than model1 with validation accuracy &gt;60%:\n\n# Compile the model\nmodel2.compile(\n    optimizer='adam',\n    lo
…
eras.layers.MaxPooling2D((2, 2)),\n\n    # Classification layers\n    keras.layers.Flatten(),\n    keras.layers.Dense(256, activation='relu'),\n    keras.layers.Dropout(0.5),\n    keras.layers.Dense(2, activation='softmax')\n])\n\nWe can inspect the model summary by running:\n\nmodel3.summary()\n\nModel: \"sequential_6\"\n\n\n\n┏━━━━━━━━━━━━━━━━━━━━━━━━━━━━━━━━━┳━━━━━━━━━━━━━━━━━━━━━━━━┳━━━━━━━━━━━━━━━┓\n┃ Layer (type)                    ┃ Output Shape           ┃       Param # ┃\n┡━━━━━━━━━━━━━━━━━━━━━━━━━━━━━━━━━╇━━━━━━━━━━━━━━━━━━━━━━━━╇━━━━━━━━━━━━━━━┩\n│ functional_5 (Functional)       │ (None, 150, 150, 3)    │             0 │\n├─────────────────────────────────┼────────────────────────┼───────────────┤\n│ sequential_5 (Sequential)       │ (None, 150, 150, 3)    │             0 │\n├─────────────────────────────────┼────────────────────────┼───────────────┤\n│ conv2d_9 (Conv2D)               │ (None, 150, 150, 64)   │         1,792 │\n├─────────────────────────────────┼────────────────────────┼───────────────┤\n│ max_pooling2d_9 (MaxPooling2D)  │ (None, 75, 75, 64)     │             0 │\n├─────────────────────────────────┼────────────────────────┼───────────────┤\n│ conv2d_10 (Conv2D)              │ (None, 75, 75, 128)    │        73,856 │\n├─────────────────────────────────┼────────────────────────┼───────────────┤\n│ max_pooling2d_10 (MaxPooling2D) │ (None, 37, 37, 128)    │             0 │\n├─────────────────────────────────┼────────────────────────┼───────────────┤\n│ conv2d_11 (Conv2D)              │ (None, 37, 37, 256)    │       295,168 │\n├─────────────────────────────────┼────────────────────────┼───────────────┤\n│ max_pooling2d_11 (MaxPooling2D) │ (None, 18, 18, 256)    │             0 │\n├─────────────────────────────────┼────────────────────────┼───────────────┤\n│ flatten_3 (Flatten)             │ (None, 82944)          │             0 │\n├─────────────────────────────────┼────────────────────────┼───────────────┤\n│ dense_6 (Dense)                 │ (None, 256)            │    21,233,920 │\n├─────────────────────────────────┼────────────────────────┼───────────────┤\n│ dropout_3 (Dropout)             │ (None, 256)            │             0 │\n├─────────────────────────────────┼────────────────────────┼───────────────┤\n│ dense_7 (Dense)                 │ (None, 2)              │           514 │\n└─────────────────────────────────┴────────────────────────┴───────────────┘\n\n\n\n Total params: 21,605,250 (82.42 MB)\n\n\n\n Trainable params: 21,605,250 (82.42 MB)\n\n\n\n Non-trainable params: 0 (0.00 B)\n\n\n\nWe’re ready to train model3 and should expect an accuracy higher than model2 with validation accuracy &gt;80%:\n\n# Compile the model\nmodel3.compile(\n    optimizer='adam',\n    
…
Classification layers\n    # Reduces each feature map to a single value by computing the average \n    keras.layers.GlobalAveragePooling2D(),\n    keras.layers.Dropout(0.3),\n    keras.layers.Dense(2, activation='softmax')\n])\n\nWe can inspect the model summary by running:\n\nmodel4.summary()\n\nModel: \"sequential_12\"\n\n\n\n┏━━━━━━━━━━━━━━━━━━━━━━━━━━━━━━━━━┳━━━━━━━━━━━━━━━━━━━━━━━━┳━━━━━━━━━━━━━━━┓\n┃ Layer (type)                    ┃ Output Shape           ┃       Param # ┃\n┡━━━━━━━━━━━━━━━━━━━━━━━━━━━━━━━━━╇━━━━━━━━━━━━━━━━━━━━━━━━╇━━━━━━━━━━━━━━━┩\n│ sequential_11 (Sequential)      │ (None, 150, 150, 3)    │             0 │\n├─────────────────────────────────┼────────────────────────┼───────────────┤\n│ functional_14 (Functional)      │ (None, 5, 5, 960)      │     2,996,352 │\n├─────────────────────────────────┼────────────────────────┼───────────────┤\n│ global_average_pooling2d_2      │ (None, 960)            │             0 │\n│ (GlobalAveragePooling2D)        │                        │               │\n├─────────────────────────────────┼────────────────────────┼───────────────┤\n│ dropout_6 (Dropout)             │ (None, 960)            │             0 │\n├─────────────────────────────────┼────────────────────────┼───────────────┤\n│ dense_10 (Dense)                │ (None, 2)              │         1,922 │\n└─────────────────────────────────┴────────────────────────┴───────────────┘\n\n\n\n Total params: 2,998,274 (11.44 MB)\n\n\n\n Trainable params: 1,922 (7.51 KB)\n\n\n\n Non-trainable params: 2,996,352 (11.43 MB)\n\n\n\nWe’re ready to train model4 and should expect an accuracy higher than model3 with validation accuracy &gt;93%:\n\n# Compile the model\nmodel4.compile(\n    optimizer=keras.opti
…
  # Compile the model\n    model.compile(\n        loss=\"binary_crossentropy\",\n        optimizer=\"adam\",\n        metrics=[\"accuracy\"]\n    )\n    \n    return model\n\nLet’s create the model and summary:\n\n# Creatd title model\ntitle_model = create_title_model()\n\ntitle_model.summary()\n\nModel: \"title_model\"\n\n\n\n┏━━━━━━━━━━━━━━━━━━━━━━━━━━━━━━━━━┳━━━━━━━━━━━━━━━━━━━━━━━━┳━━━━━━━━━━━━━━━┓\n┃ Layer (type)                    ┃ Output Shape           ┃       Param # ┃\n┡━━━━━━━━━━━━━━━━━━━━━━━━━━━━━━━━━╇━━━━━━━━━━━━━━━━━━━━━━━━╇━━━━━━━━━━━━━━━┩\n│ title (InputLayer)              │ (None, 1)              │             0 │\n├─────────────────────────────────┼────────────────────────┼───────────────┤\n│ text_vectorization              │ (None, 500)            │             0 │\n│ (TextVectorization)             │                        │               │\n├─────────────────────────────────┼────────────────────────┼───────────────┤\n│ embedding (Embedding)           │ (None, 500, 10)        │        20,000 │\n├─────────────────────────────────┼────────────────────────┼───────────────┤\n│ dropout (Dropout)               │ (None, 500, 10)        │             0 │\n├─────────────────────────────────┼────────────────────────┼───────────────┤\n│ global_average_pooling1d        │ (None, 10)             │             0 │\n│ (GlobalAveragePooling1D)        │                        │               │\n├─────────────────────────────────┼────────────────────────┼───────────────┤\n│ dropout_1 (Dropout)             │ (None, 10)             │             0 │\n├─────────────────────────────────┼────────────────────────┼───────────────┤\n│ dense (Dense)                   │ (None, 1)              │            11 │\n└─────────────────────────────────┴────────────────────────┴───────────────┘\n\n\n\n Total params: 20,011 (78.17 KB)\n\n\n\n Trainable params: 20,011 (78.17 KB)\n\n\n\n Non-trainable params: 0 (0.00 B)\n\n\n\nNow, we’re ready to train the title-only model:\n\n# Train title model\ntitle_history = title_model.fit(\n    train_dataset,\n    validation_data=val_dataset,\n    epochs=10,\n    verbose
…
 Compile the model\n    model.compile(\n        loss=\"binary_crossentropy\",\n        optimizer=\"adam\",\n        metrics=[\"accuracy\"]\n    )\n    \n    return model\n\nLet’s create the model and summary:\n\n# Create combined model\ncombined_model = create_combined_model()\n\ncombined_model.summary()\n\nModel: \"combined_model\"\n\n\n\n┏━━━━━━━━━━━━━━━━━━━━━┳━━━━━━━━━━━━━━━━━━━┳━━━━━━━━━━━━┳━━━━━━━━━━━━━━━━━━━┓\n┃ Layer (type)        ┃ Output Shape      ┃    Param # ┃ Connected to      ┃\n┡━━━━━━━━━━━━━━━━━━━━━╇━━━━━━━━━━━━━━━━━━━╇━━━━━━━━━━━━╇━━━━━━━━━━━━━━━━━━━┩\n│ title (InputLayer)  │ (None, 1)         │          0 │ -                 │\n├─────────────────────┼───────────────────┼────────────┼───────────────────┤\n│ text (InputLayer)   │ (None, 1)         │          0 │ -                 │\n├─────────────────────┼───────────────────┼────────────┼───────────────────┤\n│ text_vectorization… │ (None, 500)       │          0 │ title[0][0],      │\n│ (TextVectorization) │                   │            │ text[0][0]        │\n├─────────────────────┼───────────────────┼────────────┼───────────────────┤\n│ embedding           │ (None, 500, 10)   │     20,000 │ text_vectorizati… │\n│ (Embedding)         │                   │            │ text_vectorizati… │\n├─────────────────────┼───────────────────┼────────────┼───────────────────┤\n│ dropout_4 (Dropout) │ (None, 500, 10)   │          0 │ embedding[0][0]   │\n├─────────────────────┼───────────────────┼────────────┼───────────────────┤\n│ dropout_6 (Dropout) │ (None, 500, 10)   │          0 │ embedding[1][0]   │\n├─────────────────────┼───────────────────┼────────────┼───────────────────┤\n│ global_average_poo… │ (None, 10)        │          0 │ dropout_4[0][0]   │\n│ (GlobalAveragePool… │                   │            │                   │\n├─────────────────────┼───────────────────┼────────────┼───────────────────┤\n│ global_average_poo… │ (None, 10)        │          0 │ dropout_6[0][0]   │\n│ (GlobalAveragePool… │                   │            │                   │\n├─────────────────────┼───────────────────┼────────────┼───────────────────┤\n│ dropout_5 (Dropout) │ (None, 10)        │          0 │ global_average_p… │\n├─────────────────────┼───────────────────┼────────────┼───────────────────┤\n│ dropout_7 (Dropout) │ (None, 10)        │          0 │ global_average_p… │\n├─────────────────────┼───────────────────┼────────────┼───────────────────┤\n│ concatenate         │ (None, 20)        │          0 │ dropout_5[0][0],  │\n│ (Concatenate)       │                   │            │ dropout_7[0][0]   │\n├─────────────────────┼───────────────────┼────────────┼───────────────────┤\n│ dense_2 (Dense)     │ (None, 32)        │        672 │ concatenate[0][0] │\n├─────────────────────┼───────────────────┼────────────┼───────────────────┤\n│ dropout_8 (Dropout) │ (None, 32)        │          0 │ dense_2[0][0]     │\n├─────────────────────┼───────────────────┼────────────┼───────────────────┤\n│ dense_3 (Dense)     │ (None, 1)         │         33 │ dropout_8[0][0]   │\n└─────────────────────┴───────────────────┴────────────┴───────────────────┘\n\n\n\n Total params: 20,705 (80.88 KB)\n\n\n\n Trainable params: 20,705 (80.88 KB)\n\n\n\n Non-trainable params: 0 (0.00 B)\n\n\n\nNow, we’re ready to train the model:\n\n# Train combined model\ncombined_history = combined_model.fit(\n    train_dataset,\n    validation_data=val_dataset,\n    epoch
…
